weights_resnet.pth (torch, 333074 bytes, 47 tensors)

conv1.weight f4 [16, 3, 3, 3]
0	0x3e5f2b10	0.21793771
1	0xbe85c6b1	-0.26128152
2	0x3e3f7b97	0.1869949
3	0x3d25f99f	0.04052126
4	0xbc9a305f	-0.018821893
5	0xbb2ce64d	-0.0026382387
6	0xbddc99c9	-0.1077152
7	0x3e164540	0.14674854
8	0xbdb2dc73	-0.087334536
9	0x3e627f97	0.22118984
10	0x3dc8185f	0.097702734
11	0xbd150716	-0.03638371
12	0x3ea955af	0.33073184
13	0xbd1da546	-0.038487695
14	0xbd87090c	-0.065935224
15	0xbe5edbbc	-0.2176351
16	0xbd3d8177	-0.046266045
17	0x3e367414	0.17817718
18	0x3e271316	0.16315874
19	0x3e27a130	0.16370082
20	0x3e37542c	0.17903203
21	0x3e044431	0.12916638
22	0x3e0193cb	0.12654035
23	0x3cde2af5	0.027120093
24	0x3bb15f3e	0.005412965
25	0xbe00f0db	-0.12591879
26	0xbe5c2c73	-0.21501331
27	0x3e2a37f7	0.16622911
28	0xbe93c850	-0.28863764
29	0x3d117c8d	0.03551917
30	0x3e0344a6	0.12819156
31	0xbe181aa0	-0.14853907
32	0x3cf885e9	0.03033729
33	0x3da83da7	0.08214884
34	0x3dd25f6c	0.102721065
35	0x3e13cc9c	0.14433521
36	0xbcf36a91	-0.0297139
37	0xbdd47738	-0.10374302
38	0xbdfcbde4	-0.12340906
39	0xbd56ab3b	-0.05240939
40	0xbe6026ff	-0.21889876
41	0x3d41a146	0.047272943
42	0x3e05246c	0.13002175
43	0xbda271e6	-0.07931881
44	0xbd681aaf	-0.056666072
45	0x3d6b5ad5	0.05745967
46	0x3e833d70	0.2563281
47	0x3ccaeced	0.024771178
48	0xba2104dd	-0.0006142387
49	0x3e2e9913	0.1705058
50	0xbe83871b	-0.25689015
51	0xbddd9d7c	-0.108210534
52	0x3e16b0b7	0.14715849
53	0xbe4c108b	-0.19928186
54	0xbdb472f2	-0.088109866
55	0xbe3b95c7	-0.18318854
56	0xbe80bbb8	-0.25143218
57	0xbdd658bd	-0.10466144
58	0x3bfd7953	0.0077354102
59	0xbd5cd47a	-0.05391357
60	0x3d9c17af	0.07621705
61	0x3cbb1e47	0.022841586
62	0xbdc557df	-0.09635901
63	0xbdfba6cd	-0.12287674
64	0x3ce257ec	0.027629815
65	0xbd78cda7	-0.060743
66	0x3dd74ef9	0.1051311
67	0xbe4ea5d8	-0.20180452
68	0xbdba2750	-0.090895295
69	0x3eb46bcc	0.35238492
70	0xbda580cb	-0.08081206
71	0x3e1b16c6	0.15145406
72	0xbe5e8ad0	-0.2173264
73	0x3c257f98	0.0101012215
74	0x3c8e5ed8	0.01737921
75	0x3ee627fd	0.44952384
76	0x3db6ef8a	0.08932407
77	0x3e467c0d	0.19383259
78	0x3d5c5223	0.05378927
79	0xbd949a92	-0.072560444
80	0xbaf50817	-0.0018694428
81	0x3d8fb4fd	0.07016943
82	0xbcb487f7	-0.02203749
83	0x3d1ecf62	0.038771994
84	0xbe11c529	-0.14235367
85	0x3dd364b2	0.103219405
86	0x3e827bd5	0.254851
87	0x3e4079b9	0.18796434
88	0xbc95e5f2	-0.018298123
89	0xbe4b43be	-0.1985006
90	0xbe1a1a13	-0.15049009
91	0xbe9d9899	-0.30780485
92	0x3ddcc6f8	0.10780138
93	0xbcf35665	-0.029704282
94	0xbe51dd58	-0.20494592
95	0xbccf5fc1	-0.025314214
96	0xbeb4ac42	-0.35287672
97	0xbe0892d9	-0.13337268
98	0xbd7e2041	-0.06204248
99	0x3cda8cb9	0.02667843
100	0xbdd4f75f	-0.10398745
101	0x3b7bb3c5	0.0038406712
102	0xbdae610a	-0.085146025
103	0x3de7a099	0.113099284
104	0x3cec7cec	0.028868161
105	0x3d468b5a	0.04847274
106	0xbcc59c6e	-0.024122443
107	0x3e08f8ab	0.1337611
108	0x3c7102a7	0.014710105
109	0xbddb5cc2	-0.107110515
110	0xbda5f3be	-0.08103131
111	0xbe9f3df2	-0.31101948
112	0xbdfcf60e	-0.12351619
113	0xbde27c20	-0.11058831
114	0x3cb3b67e	0.021937605
115	0x3d0b0b67	0.03394642
116	0x3cd3b375	0.025842408
117	0x3d7c240f	0.061557826
118	0xbdcb637b	-0.09931084
119	0x3e14da39	0.1453637
120	0x3d488688	0.048956424
121	0xbcf4344a	-0.02981009
122	0xbd59d12f	-0.05317801
123	0x3e16ce7a	0.14727202
124	0xbaab0f98	-0.0013050912
125	0xbcd50c35	-0.026006797
126	0x3d015147	0.031571653
127	0xbb9df96c	-0.004820993
128	0x3e17c5fc	0.14821619
129	0xbea7140e	-0.32632488
130	0xbe4e2d8a	-0.2013456
131	0xbdd5fe99	-0.10448951
132	0xbc60f308	-0.013729818
133	0xbcfbff5e	-0.030761417
134	0x3e05a073	0.13049488
135	0xbd949f2d	-0.07256923
136	0x3d2937b7	0.0413129
137	0x3b42d6dc	0.0029730117
138	0x3e05d619	0.13069953
139	0x3d8b1913	0.06791892
140	0x3da697c6	0.08134417
141	0xbdd69995	-0.10478512
142	0xbe26a325	-0.16273172
143	0x3d327a92	0.043573923
144	0xbb33f237	-0.0027457604
145	0xbe043c18	-0.12913549
146	0xbe290300	-0.1650505
147	0x3d6c74c1	0.057728533
148	0x3e8b7403	0.27236947
149	0x3cae7c08	0.021299377
150	0xbd4c5bb8	-0.049892157
151	0xbd1a5afa	-0.03768442
152	0x3d4716bb	0.04860566
153	0x3d807e97	0.06274145
154	0x3cea4a49	0.028599875
155	0x3d1f8f3d	0.038954962
156	0xbbb89ca8	-0.0056339093
157	0x3dab6c35	0.08370248
158	0xbcad1f35	-0.021133045
159	0x3dbe1f59	0.09283323
160	0xbe43e0b0	-0.1912868
161	0xbe414377	-0.18873392
162	0x3c6a40f5	0.0142977135
163	0x3c46a9f6	0.012125483
164	0x3d35e87f	0.04441118
165	0x3d6405e2	0.055669673
166	0xbdd04ec9	-0.10171277
167	0x3d972bfc	0.07381436
168	0xbcf9f7a4	-0.030513592
169	0xbe56826e	-0.20948192
170	0x3dd85a56	0.10564105
171	0x3d85fff4	0.0654296
172	0xbd8147df	-0.063125364
173	0x3e4ad355	0.1980718
174	0x3d5ba664	0.05362548
175	0xbdd09768	-0.101851285
176	0xbdaddd02	-0.084894195
177	0xbd8de31d	-0.06928084
178	0x3c0a318a	0.008434663
179	0x3e12570e	0.14291021
180	0xbe0ae614	-0.1356433
181	0xbcb2b2ea	-0.021813828
182	0x3e8015c6	0.25016612
183	0xbc2e5991	-0.0106414715
184	0xbdeb7541	-0.11496974
185	0x3df41fd2	0.11920132
186	0xbd41fdc7	-0.04736116
187	0xbe1c78b5	-0.15280421
188	0xbccf3ad6	-0.02529661
189	0x3cd5fe18	0.026122138
190	0xbe5ae719	-0.2137722
191	0xbcbcf90b	-0.023067972
192	0xbc9cb4ee	-0.019129243
193	0x3d88ec21	0.06685663
194	0x3d608377	0.054812875
195	0x3cda0bfd	0.026617045
196	0x3de83ab2	0.1133932
197	0x3de41b65	0.111380376
198	0xbe22feda	-0.1591753
199	0xbe303051	-0.17205931
200	0xbdeb6db5	-0.11495534
201	0x3ddea33e	0.1087098
202	0xbcae050f	-0.021242647
203	0x3dafa014	0.08575454
204	0xbdc66673	-0.096875094
205	0xbe14c070	-0.14526534
206	0x3db5a077	0.08868497
207	0x3cab115e	0.020882305
208	0xbe4d8913	-0.20071821
209	0xbdd78e4f	-0.1052519
210	0x3e4a4338	0.19752204
211	0x3e1b4de4	0.15166432
212	0x3d00d4e8	0.031453043
213	0x3e90e0c6	0.2829649
214	0x3d8170a6	0.06320314
215	0xbdcbe6eb	-0.099561535
216	0x3c8acd9f	0.01694375
217	0xbc79883f	-0.0152302375
218	0x3dc9c88b	0.09852704
219	0x3e025d69	0.12730946
220	0x3de142af	0.10999047
221	0x3df36ee3	0.11886384
222	0xbd8c92de	-0.0686395
223	0xbe83f4d5	-0.2577273
224	0xbe0671b9	-0.13129319
225	0x3d930713	0.07179084
226	0x3d9206af	0.07130181
227	0x3dd129fc	0.10213086
228	0xbe35cc57	-0.1775373
229	0xbcc59e19	-0.024123238
230	0xbd86deea	-0.06585486
231	0x3ce811ef	0.028328864
232	0xbe7035b1	-0.23457982
233	0x3df5cd05	0.12001995
234	0x3db75ea3	0.089535974
235	0x3d65be9a	0.056089975
236	0x3c4bfbcd	0.012450171
237	0x3e0e3744	0.1388827
238	0xbe2b3af1	-0.16721703
239	0xbe61a1d7	-0.22034393
240	0x3e90ae7c	0.2825812
241	0x3c1e7f45	0.009673898
242	0x3de397b6	0.11112921
243	0xbcb0cd5b	-0.021582296
244	0xbd495e89	-0.04916242
245	0x3d897974	0.067126185
246	0xbbf5397e	-0.0074836602
247	0x3cc88741	0.024478557
248	0x3dfd62be	0.12372349
249	0xbe4841fc	-0.19556421
250	0xbb9cc32b	-0.004784008
251	0x3d0e47cf	0.03473645
252	0xbdbb4af1	-0.09145153
253	0xbb0d8423	-0.0021593652
254	0xbc189562	-0.009312959
255	0x3df25ee1	0.11834503

bn1.weight f4 [16]
0	0x3f6a02b5	0.9141038
1	0x3f7f553b	0.99739426
2	0x3f77ee31	0.96847826
3	0x3f7180a0	0.9433689
4	0x3f6efa90	0.9335108
5	0x3f8faf34	1.1225343
6	0x3f92981f	1.1452674
7	0x3f7258ae	0.94666564
8	0x3f6da46f	0.9282903
9	0x3f7ea86e	0.99475753
10	0x3f5e02d1	0.8672305
11	0x3f90fa1e	1.132633
12	0x3f898bc9	1.0745784
13	0x3f6d95c4	0.9280665
14	0x3f850bf1	1.0394269
15	0x3f54a596	0.83065164

bn1.bias f4 [16]
0	0xbd98ebd3	-0.07466855
1	0x3d51be4f	0.051206883
2	0x3d195bf2	0.0374412
3	0xbd849d88	-0.06475359
4	0xbe4865f1	-0.19570138
5	0x3de8d6ad	0.11369071
6	0x3e0958bf	0.1341276
7	0xbc79c029	-0.015243568
8	0xbdb330f2	-0.0874957
9	0xbd83822e	-0.06421314
10	0xbc79b0a6	-0.01523987
11	0xbc4773dd	-0.01217362
12	0x3d15d857	0.03658327
13	0xbd7f4db3	-0.06232996
14	0x3da420b5	0.08014051
15	0xbdc27b72	-0.094962016

bn1.running_mean f4 [16]
0	0xbe16d1f6	-0.14728531
1	0x3c87e8ae	0.016590443
2	0xbd0e2af5	-0.034708936
3	0x3db312d2	0.08743824
4	0x3dee98e2	0.11650254
5	0x3c46e77f	0.012140154
6	0x3c4e3b9b	0.012587453
7	0xbce5de78	-0.028060183
8	0xbd2d5655	-0.04231866
9	0x3cae8e1e	0.021308001
10	0xbca87647	-0.020564212
11	0xbaaa6a1d	-0.0013001595
12	0xbb3ce3dd	-0.002882234
13	0x3c82c26f	0.015961854
14	0xbc9aba16	-0.01888756
15	0xbd025b69	-0.031825457

bn1.running_var f4 [16]
0	0x3e8640d3	0.26221332
1	0x3c954ebb	0.018226018
2	0x3d9ce6d3	0.07661214
3	0x3e13e524	0.14442879
4	0x3e32df97	0.17468105
5	0x3c3ba567	0.011453009
6	0x3cb6c454	0.022310413
7	0x3d2b4224	0.041811123
8	0x3ccfad21	0.025351109
9	0x3cc56446	0.024095666
10	0x3d098445	0.033573408
11	0x3cc71ec2	0.024306659
12	0x3cb320fc	0.021866314
13	0x3c281e81	0.010261179
14	0x3d0664c2	0.032810934
15	0x3ce1578b	0.027507564

layer1.0.conv1.weight f4 [16, 16, 3, 3]
0	0x3d2a8d25	0.041638512
1	0x3ea9fef8	0.33202338
2	0x3b04f8c2	0.0020289873
3	0xbd564981	-0.052316193
4	0x3e1fd85e	0.15609881
5	0xbc8cbf00	-0.01718092
6	0x3bc6da21	0.0060684835
7	0x3e759c0c	0.23985308
8	0x3c0cfaa1	0.008604676
9	0x3d813381	0.06308652
10	0x3df06605	0.11738209
11	0x3da9a513	0.082834385
12	0x3e6963a9	0.22791924
13	0x3e6cb252	0.23114899
14	0xbe074e63	-0.13213496
15	0xbe2b5a7e	-0.16733739
16	0x3d2d5ad9	0.042322967
17	0x3dc1b8d1	0.09459079
18	0xba2a1eb2	-0.00064895593
19	0xbddbe891	-0.10737718
20	0xbd550588	-0.052007228
21	0x3e1330da	0.14374104
22	0xbe0da8c1	-0.13833906
23	0xbe6690a3	-0.22516112
24	0x3dff366c	0.12461552
25	0xbd8d0fec	-0.068878025
26	0x3e3c84a4	0.18409973
27	0xbd3178f3	-0.043328237
28	0x3e2ff77d	0.17184253
29	0xbc99dbeb	-0.018781623
30	0x3dd6a2c9	0.104802676
31	0x3e5cb63b	0.2155389
32	0x3c491e12	0.012275236
33	0xbdb12b55	-0.08650843
34	0x3d7010be	0.058609717
35	0xbb11324e	-0.0022155228
36	0x3dfdc64b	0.12391337
37	0x3d3e691a	0.04648695
38	0xbdc167eb	-0.09443649
39	0xbdadea29	-0.08491928
40	0x3e277859	0.16354503
41	0x3de0973e	0.10966347
42	0xbe727d64	-0.23680645
43	0x3cb54493	0.022127425
44	0xbcf06093	-0.029342925
45	0xbddb811b	-0.10717984
46	0x3e2a57af	0.16635011
47	0xbd00ff9d	-0.03149377
48	0xbd2828e6	-0.04105463
49	0x3e1748b4	0.14773828
50	0x3e6a017f	0.22852133
51	0xbce09bbc	-0.02741801
52	0x3e1e6e60	0.15471792
53	0xbd975646	-0.07389502
54	0xbe3562f1	-0.17713524
55	0x3ca24273	0.019807076
56	0xbda70910	-0.081560254
57	0xbe61d300	-0.22053146
58	0xbe4a4a02	-0.19754794
59	0x3e25b0ac	0.16180676
60	0xbd3e4f9c	-0.04646264
61	0xbea30e5a	-0.31846887
62	0xba9f22e3	-0.0012141134
63	0x3da1a465	0.07892684
64	0xbdfc218c	-0.12311086
65	0xbdfb65ed	-0.122753
66	0xbe815f2c	-0.25267923
67	0xbe13c1ef	-0.14429449
68	0xbdf6e397	-0.12055128
69	0xbde59965	-0.11210898
70	0x3e890497	0.26761314
71	0x3e8af710	0.2714162
72	0x3e07f294	0.1327613
73	0xbdac10f7	-0.08401673
74	0x3d889732	0.06669463
75	0x3e869ef1	0.26293138
76	0xbe0f2a66	-0.13981017
77	0x3dacb0c8	0.08432156
78	0x3e385106	0.17999658
79	0xbe3b6d21	-0.18303348
80	0xbdfab22d	-0.122410156
81	0x3e25c0c8	0.16186821
82	0x3de99a49	0.11406381
83	0x3dcb193f	0.09916925
84	0x3d8814ef	0.06644618
85	0x3e030dbc	0.12798208
86	0x3e39ab43	0.18131737
87	0xbe2d99a5	-0.16953142
88	0xbcae3bef	-0.021268813
89	0xbdc528db	-0.09626933
90	0xbe39a9f1	-0.18131234
91	0xbaeca10e	-0.0018053369
92	0x3d0bc181	0.034120087
93	0x3d90a3f5	0.07062522
94	0xbc0f0d52	-0.008731203
95	0xbdb994df	-0.09061598
96	0xbe430259	-0.19043864
97	0x3d45d4db	0.048298698
98	0xbc698171	-0.014252053
99	0xbe081801	-0.13290407
100	0x3d899466	0.06717758
101	0x3e3d5a06	0.18491372
102	0xbe2e7aa4	-0.17038971
103	0x3d391b39	0.045191977
104	0x3e301547	0.17195617
105	0x3e92ce2d	0.28672925
106	0x3e574586	0.21022615
107	0x3e92ba03	0.2865754
108	0xbdc80433	-0.09766426
109	0xbe8f1f76	-0.2795369
110	0xbd4130d4	-0.047165707
111	0xbcd31b20	-0.02576977
112	0xbde70d93	-0.11281886
113	0x3dc068e4	0.09395006
114	0xbe7e3e1f	-0.24828385
115	0x3d93c50c	0.07215318
116	0xbdc7b1e6	-0.09750728
117	0xbd59c02b	-0.05316178
118	0xbcb053fc	-0.021524422
119	0x3d14355c	0.0361837
120	0xbda23582	-0.07920362
121	0xbdce10f4	-0.10061827
122	0x3da0f5d7	0.0785939
123	0x3cf66deb	0.03008171
124	0xbe03314d	-0.12811776
125	0xbda417d0	-0.080123544
126	0xbe80b7f7	-0.25140354
127	0xbd3891fb	-0.045061093
128	0x3d3342d5	0.043764908
129	0xbdbcdede	-0.09222196
130	0x3c177616	0.0092444625
131	0xbe907313	-0.28212795
132	0xbd02da9d	-0.031946767
133	0xbdb5288a	-0.08845623
134	0xbe1021c6	-0.14075384
135	0x3e2c4968	0.16824877
136	0x3d1c800f	0.038208064
137	0xbc4d44bf	-0.012528597
138	0x3dc99ecd	0.09844742
139	0x3d906087	0.07049661
140	0xbc22f238	-0.009945445
141	0x3dd81421	0.10550714
142	0xb99aa6ab	-0.00029497346
143	0xbdb63483	-0.088967346
144	0x3af22c7c	0.0018476392
145	0xbdf8f652	-0.12156357
146	0xbc953296	-0.018212598
147	0xbd383640	-0.04497361
148	0x3dd24c0c	0.10268411
149	0xbc858bd8	-0.016302034
150	0xbdbe70e8	-0.09298879
151	0xbc6d42ea	-0.014481286
152	0x3bc827d6	0.0061082644
153	0x3d0e8b6d	0.034800936
154	0xbdd69adf	-0.10478758
155	0xbc1ab5a9	-0.009442725
156	0x3dafd442	0.08585407
157	0x3e3d670e	0.18496343
158	0x3e9a1132	0.30091244
159	0xbe0db898	-0.13839948
160	0x3e878239	0.2646654
161	0xbe25b050	-0.16180539
162	0x3e21e6bd	0.15810676
163	0xbcc0c421	-0.023531022
164	0x3da80723	0.08204486
165	0x3c7df47c	0.015500184
166	0x3e9c4934	0.305246
167	0xbde9f395	-0.11423413
168	0x3df44f13	0.11929145
169	0xbd926ab1	-0.07149256
170	0x3d8322fa	0.064031556
171	0xbcdfe709	-0.027331846
172	0xbd4b8cc1	-0.04969478
173	0x3e022dbc	0.12712759
174	0xbd0ee117	-0.03488263
175	0xbe253657	-0.1613401
176	0xbdb520f8	-0.08844179
177	0x3cb18ce9	0.021673637
178	0x3ce9daf7	0.028546793
179	0xbd1f8d41	-0.03895307
180	0xbdfea7e7	-0.124343686
181	0xbe77d8bf	-0.24203776
182	0xbcfa57d7	-0.030559463
183	0x3d0aeab1	0.033915225
184	0x3d888ae2	0.06667115
185	0xbcdf8284	-0.027283914
186	0x3e5ff575	0.21870978
187	0x3dc65201	0.0968361
188	0xbbab32a0	-0.005224541
189	0x3dcf879e	0.10133289
190	0x3dadbdb8	0.084834516
191	0x3eb82e51	0.35972837
192	0x3d631827	0.055442955
193	0x3db5494a	0.088518694
194	0xbe02b678	-0.12764919
195	0x3ca8edee	0.020621266
196	0xbde1c1d2	-0.110232964
197	0xbe2e7186	-0.17035493
198	0x3e21a337	0.15784918
199	0x3df1113a	0.11770864
200	0x3e0ed987	0.13950168
201	0x3de673ca	0.11252554
202	0x3e6126b4	0.2198742
203	0xbd4ecbf3	-0.05048747
204	0x3ce4523f	0.02787125
205	0xbbf06843	-0.0073366477
206	0x3d48e1e9	0.04904357
207	0x3d042dab	0.032270115
208	0x391ae61b	0.00014772305
209	0x3d93dede	0.07220243
210	0x3cc4cfde	0.0240249
211	0x3cba980c	0.02277758
212	0xbe53db9e	-0.20689246
213	0xbe202f26	-0.15642986
214	0xbd53eefc	-0.051741585
215	0x3dd7160e	0.105022535
216	0xbe1c3dc6	-0.1525794
217	0xbd84a0cf	-0.06475984
218	0x3d5c3aca	0.053767003
219	0xbda8211f	-0.08209442
220	0x3d80bb89	0.062857695
221	0xbe211dc1	-0.15734006
222	0x3e3213e6	0.17390403
223	0x3dfafe36	0.12255518
224	0xbd851e32	-0.064999
225	0xbdbef142	-0.0932336
226	0x3e2ccdba	0.16875353
227	0x3e240268	0.16016543
228	0x3db721a8	0.08941966
229	0x3e059063	0.1304336
230	0xbd5db055	-0.05412324
231	0x3bfe2a05	0.007756474
232	0x3c83fd3f	0.016111968
233	0xbdac3255	-0.084080376
234	0x3c7cdb63	0.015433165
235	0x3e21f595	0.15816338
236	0xbcd290f7	-0.02570389
237	0x3c2100be	0.009826837
238	0x3d9bb5a0	0.076030016
239	0x3dfa755a	0.12229414
240	0x3e8a610a	0.2702716
241	0xbe320784	-0.1738568
242	0xbeaa5c2a	-0.3327344
243	0xbe29afdd	-0.16570993
244	0xbd82f482	-0.063942924
245	0x3d182ba0	0.03715098
246	0xbcd9e442	-0.0265981
247	0xbe1c2887	-0.15249835
248	0x3d10a71b	0.035315614
249	0x3e91a338	0.2844484
250	0x3e043793	0.12911825
251	0x3c986a6d	0.018605435
252	0x3c98dc65	0.01865978
253	0x3c401dd5	0.0117258625
254	0xbd1230ad	-0.035690952
255	0x3de18f94	0.110137135

layer1.0.bn1.weight f4 [16]
0	0x3f6bd386	0.92119634
1	0x3f804e22	1.0023844
2	0x3f795001	0.973877
3	0x3f76c643	0.96396273
4	0x3f79569b	0.97397774
5	0x3f7f66ba	0.99766123
6	0x3f6a296f	0.9146947
7	0x3f8886e9	1.0666171
8	0x3f7d6cd3	0.9899418
9	0x3f816460	1.0108757
10	0x3f8759ee	1.0574319
11	0x3f875d40	1.0575333
12	0x3f80e1fa	1.0068963
13	0x3f8ad494	1.0846124
14	0x3f813255	1.0093485
15	0x3f83e2eb	1.0303625

layer1.0.bn1.bias f4 [16]
0	0xbd061632	-0.03273601
1	0xbd5280da	-0.051392414
2	0xbdd3bc76	-0.103386804
3	0xbc697d65	-0.014251088
4	0xbda45828	-0.08024627
5	0xbd3383d9	-0.04382691
6	0xbd41e313	-0.047335695
7	0xbcf005e5	-0.029299686
8	0xbaa8ab46	-0.0012868426
9	0x3b907074	0.0044079367
10	0x3dc98cb6	0.098412916
11	0xbc7dd2b5	-0.015492131
12	0xbd80b3e2	-0.0628431
13	0x3d602fa0	0.05473292
14	0xbdb5c707	-0.08875852
15	0x3ae5bd0b	0.0017527653

layer1.0.bn1.running_mean f4 [16]
0	0x3e3b646a	0.18300024
1	0x3fab10f3	1.3364547
2	0xbf40e29a	-0.75345767
3	0xbe78e61a	-0.24306527
4	0x3e828024	0.2548839
5	0xbef6ab7c	-0.48177707
6	0xbd895a9d	-0.06706736
7	0xbe8b4cfb	-0.2720717
8	0xbf2a7abb	-0.6659352
9	0xbf5ebfac	-0.8701122
10	0xbf433f52	-0.76268494
11	0xbf33b36f	-0.7019567
12	0xbed03360	-0.40664196
13	0xbf58c655	-0.8467763
14	0xbeac1f83	-0.33617792
15	0x3c8f11ca	0.017464537

layer1.0.bn1.running_var f4 [16]
0	0x4004766c	2.069728
1	0x3fdfc4e0	1.7481956
2	0x3f363cc4	0.7118647
3	0x401a0b79	2.4069502
4	0x3f6a881b	0.9161393
5	0x3f45c203	0.77249163
6	0x3f51f88b	0.8201987
7	0x40001ebc	2.0018759
8	0x3fc20cda	1.5160172
9	0x3fc67423	1.5504192
10	0x400dac23	2.2136314
11	0x3f8f9591	1.1217519
12	0x3fd93566	1.6969421
13	0x3ff85662	1.9401362
14	0x3fb5876f	1.4181956
15	0x3f5b0c2d	0.85565454

layer1.0.conv2.weight f4 [16, 16, 3, 3]
0	0xbd41d6e7	-0.047324087
1	0x3d58a2f2	0.05288977
2	0xbcd2ee80	-0.025748491
3	0x3db5156f	0.08841979
4	0x3e277ffe	0.16357419
5	0xbd706823	-0.058693063
6	0xbd6b5e36	-0.057462893
7	0xbe358b12	-0.17728832
8	0xbb606e16	-0.0034245304
9	0xbda0195c	-0.07817337
10	0xbdf3b9df	-0.119006865
11	0xbd74c34b	-0.05975656
12	0xbe280e4b	-0.16411702
13	0xbd1ef252	-0.038805313
14	0xbe04369f	-0.12911461
15	0xbd9af5b1	-0.07566393
16	0x3eaf6c69	0.34262398
17	0x3e2a9605	0.1665879
18	0xbc2e30e8	-0.010631777
19	0xbe2c0271	-0.16797806
20	0xbdb45bc4	-0.088065654
21	0x3e0ea76e	0.13931057
22	0x3e09aefc	0.13445657
23	0xbcff29cc	-0.03114786
24	0x3e21528d	0.15754147
25	0x3dab3341	0.08359385
26	0x3d25e5ce	0.040502362
27	0xbcb85979	-0.022503601
28	0x3c5ce2a5	0.013481771
29	0xbe2e8bf3	-0.17045574
30	0x3dac938d	0.084265806
31	0xbe132b5c	-0.14372009
32	0xbea524d3	-0.32254657
33	0x3df8f221	0.121555574
34	0xbc4401c4	-0.011963312
35	0x3cfd2c5f	0.030904947
36	0xbd20b2d5	-0.039233048
37	0x3dd182c4	0.1023002
38	0x3d23e069	0.040008936
39	0xbdfdd1d4	-0.12393537
40	0xbe7da6e9	-0.24770702
41	0x3e2e57f9	0.17025746
42	0x3cf15ad9	0.029462265
43	0xbcc98b12	-0.024602447
44	0xbd2950a4	-0.04133667
45	0x3e1df487	0.15425311
46	0x3c5ee2f2	0.013603913
47	0xbe81dbed	-0.25363103
48	0x3e219cbb	0.15782444
49	0xbdac705a	-0.08419867
50	0xbd0f60cf	-0.035004433
51	0x3e70de7a	0.23522368
52	0x3a81558b	0.0009867413
53	0x3e5c6a25	0.21524866
54	0x3d05468b	0.03253798
55	0xbd68e5c9	-0.056859765
56	0xbde02b0c	-0.109457105
57	0xbded1158	-0.11575574
58	0xbe266de3	-0.16252856
59	0x3d93852c	0.07203135
60	0xbe3560cc	-0.17712706
61	0x3db72336	0.08942263
62	0x3d3b6ef0	0.045760095
63	0x3de5c2d2	0.112188
64	0x3e7d2d00	0.24724197
65	0x3cd4cb45	0.025975833
66	0x3b17c024	0.0023155296
67	0xbdaeca29	-0.08534653
68	0xbd36b345	-0.04460456
69	0xbd153cc9	-0.036434922
70	0xbe63080e	-0.22171041
71	0x3c7122a1	0.014717729
72	0xbd895360	-0.06705356
73	0xbe08cc49	-0.13359179
74	0xbcc5face	-0.024167445
75	0xbe09c01d	-0.13452192
76	0xbd0e7579	-0.03478
77	0xbe0c1727	-0.13680707
78	0x3e1bdeab	0.1522166
79	0x3bc4b589	0.006003086
80	0xbd86b8ab	-0.06578191
81	0xbd059d90	-0.032620966
82	0xbe5488d6	-0.20755324
83	0xbe1d7e76	-0.15380272
84	0xbd6eae3c	-0.05827163
85	0x3d7d340b	0.06181721
86	0xbded3ced	-0.11583886
87	0x3d2604e8	0.040532023
88	0xbce13c5e	-0.027494606
89	0x3e75888a	0.23977867
90	0x3dcad054	0.09903017
91	0x3e451377	0.19245706
92	0xbc55769d	-0.013028768
93	0x3db9a5d2	0.09064831
94	0x3dcb3fda	0.09924288
95	0x3c96c059	0.018402265
96	0xbd091bb1	-0.033473674
97	0xbcd91863	-0.026500886
98	0xba560ef7	-0.0008165682
99	0x3eb6dbab	0.35714468
100	0xbdc00185	-0.0937529
101	0xbd55ee16	-0.05222901
102	0xbdd29d81	-0.10283948
103	0x3e86216e	0.2619738
104	0xbddb0de4	-0.10696009
105	0x3e43b120	0.19110537
106	0x3e3e5464	0.1858688
107	0x3ce981ea	0.02850433
108	0x3db79b1a	0.0896513
109	0x3e71ca0a	0.23612228
110	0x3d61741d	0.055042375
111	0xbb307398	-0.0026924368
112	0x3d61a830	0.055092037
113	0xbd1144c3	-0.035465967
114	0xbde0831b	-0.109625064
115	0xbd66556a	-0.0562338
116	0x3d85695b	0.065142356
117	0xbe17df7a	-0.14831343
118	0xbe35bddb	-0.17748205
119	0x3d4466b8	0.047949523
120	0xbd9daca3	-0.076989435
121	0xbe2f2ffa	-0.17108145
122	0x3c9dea49	0.019276755
123	0xbcf155c3	-0.02945984
124	0x3dcb3e4b	0.09923991
125	0x3d15898d	0.03650813
126	0xbddb3022	-0.1070254
127	0x3dab2c97	0.08358114
128	0xbdf1f38e	-0.118140325
129	0x3d9700cf	0.07373201
130	0xbcd2bbc9	-0.025724309
131	0x3d9af741	0.07566691
132	0xbe8595ba	-0.26090795
133	0x3cd1f373	0.025628781
134	0xbde3c18e	-0.11120902
135	0xbe1a9261	-0.15094902
136	0x3d1dbdb8	0.038511008
137	0x3e39ef09	0.18157591
138	0xbde0aec1	-0.10970832
139	0xbe220148	-0.15820801
140	0x3d87fbf3	0.066398524
141	0x3db614a9	0.08890659
142	0xbe648f7a	-0.22320357
143	0xbc81eeb3	-0.015860891
144	0xbda37a16	-0.079822704
145	0x3d58b04c	0.052902505
146	0x3d009085	0.031387825
147	0xbd035cfc	-0.0320711
148	0x3d944c1b	0.072410785
149	0x3e176ad4	0.14786845
150	0xbdd3bed8	-0.10339135
151	0xbe262bea	-0.1622769
152	0xbdfcc32d	-0.12341914
153	0x3dfa9141	0.12234736
154	0x3ce885f2	0.028384183
155	0x3dd3611b	0.10321256
156	0x3dbdd2ed	0.092687465
157	0xbbfdb219	-0.007742178
158	0x3e6ebe5a	0.23314801
159	0x3dab92ca	0.08377607
160	0x3d88c952	0.06679024
161	0xbdecb6d1	-0.11558307
162	0x3e941d42	0.28928572
163	0x3d5d0fdd	0.053970207
164	0x3c092e29	0.008372822
165	0xbdaf61ec	-0.08563599
166	0x3d4fee28	0.050764233
167	0x3e51c261	0.20484306
168	0x3dca6649	0.098827906
169	0x3cafacd1	0.02144471
170	0x3c54fba2	0.012999447
171	0xba674928	-0.0008822852
172	0x3cd9f4ef	0.026606051
173	0xbe14501c	-0.14483684
174	0x3e12bd85	0.14330108
175	0xbe0d5bd4	-0.13804561
176	0x3cf26d75	0.029593209
177	0x3d84cdf5	0.06484596
178	0x3db29b89	0.08721072
179	0xbdbb2b51	-0.09139121
180	0xbe48d098	-0.19610822
181	0x3e0ffba3	0.14060836
182	0xbde9c0bc	-0.11413714
183	0xbcf4213d	-0.029801005
184	0x3dc3bfd4	0.09558073
185	0xbd69f803	-0.057121288
186	0xbd8231d9	-0.06357164
187	0xbd8dc132	-0.06921615
188	0x3e0c20e4	0.13684422
189	0x3d194aa5	0.037424702
190	0xbe9a905b	-0.3018826
191	0xbd5365f4	-0.051610902
192	0x3de5752d	0.1120399
193	0x3d27c08b	0.040955108
194	0x3dd06189	0.10174853
195	0x3e215324	0.15754372
196	0x3ea69a4c	0.32539594
197	0xbe088262	-0.13330987
198	0xbd1347cd	-0.035957146
199	0xbda1ace3	-0.07894304
200	0x3d0679c8	0.032830983
201	0x3ea9d1e5	0.3316795
202	0x3d6962dd	0.05697905
203	0x3e71cdcc	0.23613662
204	0x3e185454	0.14875919
205	0x3e969921	0.29413703
206	0xbaa99947	-0.0012939357
207	0xbd5b227d	-0.053499687
208	0xbdf1ebc7	-0.11812549
209	0xbcdd0a24	-0.026982374
210	0xbe2820e8	-0.16418803
211	0xbdd59163	-0.10428121
212	0xbe3a17cb	-0.18173139
213	0x3de7b30c	0.11313447
214	0x3dc0409f	0.093873255
215	0xbd9a73c9	-0.075416155
216	0xbddb10db	-0.10696574
217	0x3e9e6282	0.3093453
218	0xbc6d2da4	-0.014476214
219	0xbca59f10	-0.020217448
220	0x3e54de00	0.20787811
221	0x3da87bdf	0.082267515
222	0xbc52acf2	-0.012858616
223	0xbdc57519	-0.09641475
224	0x3e5ac8cc	0.2136566
225	0xbd581830	-0.052757442
226	0x3daeddc2	0.08538391
227	0xbd8819ff	-0.06645583
228	0xbe4b03ab	-0.19825618
229	0xbcafbc9b	-0.021452239
230	0xbe0f5848	-0.1399852
231	0x3e011577	0.12605844
232	0x3c36f8c6	0.011167711
233	0x3b3d1815	0.0028853465
234	0x3d3c9dd5	0.046048958
235	0x3d823fc4	0.063598186
236	0xbd2c8ca3	-0.04212631
237	0xbda86775	-0.08222858
238	0xbd8daca5	-0.06917695
239	0xbe24c60e	-0.16091177
240	0xbd93dbc4	-0.07219651
241	0xbe8f5b8d	-0.27999535
242	0xbe0be5d9	-0.13661899
243	0xbda106ca	-0.07862623
244	0x3da72a82	0.081624046
245	0xbcf93b01	-0.030423643
246	0x3cd609bd	0.02612769
247	0x3d35d0bd	0.04438852
248	0x3cfc261f	0.030779896
249	0x3d304a45	0.04303958
250	0xbe25ecbf	-0.16203593
251	0x3d4fdb8f	0.050746497
252	0xbe44ff38	-0.19237983
253	0xba23205b	-0.0006222778
254	0xbe088e86	-0.13335618
255	0xbebecc16	-0.3726508

layer1.0.bn2.weight f4 [16]
0	0x3f7a2366	0.97710264
1	0x3f6db32c	0.9285152
2	0x3f807769	1.0036441
3	0x3f83597b	1.0261682
4	0x3f6df3f2	0.92950356
5	0x3f7c3edb	0.9853341
6	0x3f62e75d	0.8863428
7	0x3f6d3482	0.92658246
8	0x3f813f64	1.009747
9	0x3f87c775	1.0607744
10	0x3f8b5a35	1.0886904
11	0x3f770a97	0.96500534
12	0x3f92ca35	1.1467959
13	0x3f8f0505	1.1173407
14	0x3f6fab80	0.93621063
15	0x3f82a4d5	1.0206553

layer1.0.bn2.bias f4 [16]
0	0xbd43f859	-0.047844265
1	0xbdbaa7fa	-0.0911407
2	0x3d9509dc	0.07277271
3	0xbdb87a6b	-0.090077244
4	0xbdf38941	-0.118914135
5	0x3d0e5c4e	0.034755997
6	0xbc80e812	-0.01573566
7	0xbd1571d7	-0.03648552
8	0xbdcd088f	-0.10011398
9	0x3bffc2e8	0.007805217
10	0x3d854b55	0.06508509
11	0x3ad0fc2f	0.0015944297
12	0x3c9d929f	0.019234953
13	0x3d3e2ade	0.0464276
14	0x3da970ac	0.082734436
15	0xbbb516f6	-0.005526419

layer1.0.bn2.running_mean f4 [16]
0	0xbe95a8f5	-0.29230466
1	0xbe174b3e	-0.14774796
2	0xbe8f627c	-0.28004825
3	0xbf627864	-0.8846495
4	0x3edb2747	0.42803404
5	0x3fb7f96c	1.4372993
6	0xbf7cec87	-0.9879841
7	0xbf465d82	-0.7748643
8	0xbc6f6391	-0.014611141
9	0xbf4538f5	-0.77040035
10	0xbfcf13e4	-1.6177945
11	0xbfe08e6e	-1.7543466
12	0xbd8163c6	-0.063178584
13	0xbf44f5df	-0.7693767
14	0xbd910826	-0.07081632
15	0xbfc48698	-1.5353575

layer1.0.bn2.running_var f4 [16]
0	0x3f620c08	0.8829961
1	0x3f62b9e7	0.88564914
2	0x3f98e07f	1.1943511
3	0x3f9e9aef	1.2391032
4	0x3f858ae6	1.0433013
5	0x3f9e9129	1.2388049
6	0x3f7af443	0.98028964
7	0x3f9b6700	1.2140808
8	0x3fa9bef7	1.3261403
9	0x3f816ff7	1.0112294
10	0x40579dbc	3.3690023
11	0x3f6968eb	0.9117572
12	0x3f481308	0.7815404
13	0x3f9167fd	1.135986
14	0x3f8fdffd	1.1240231
15	0x4007ad7b	2.1199634

layer2.0.conv1.weight f4 [32, 16, 3, 3]
0	0xbe9d0204	-0.306656
1	0xbb345594	-0.002751683
2	0xbc27e684	-0.01024783
3	0xbd233d29	-0.03985325
4	0x3d9985f0	0.0749625
5	0x3d0d5341	0.034503225
6	0x3e3dff58	0.18554437
7	0x3e04855a	0.12941495
8	0x3e3eccf4	0.18632871
9	0xbc961dcd	-0.018324757
10	0xbdd04f25	-0.101713456
11	0x3cdae16f	0.026718823
12	0xbda2a9b1	-0.07942522
13	0xbe36bfed	-0.17846651
14	0xbde055ae	-0.10953842
15	0xbca24cce	-0.019812014
16	0xbda8a1f2	-0.082340136
17	0xbd0b4d54	-0.034009293
18	0x3ca0048c	0.019533418
19	0x3d854bec	0.065086216
20	0x3e2270fa	0.1586341
21	0xbd7eaef6	-0.062178575
22	0x3dcd67e4	0.10029581
23	0xbd3d95f8	-0.0462856
24	0xbcbd43d0	-0.023103625
25	0xbdcfeff4	-0.10153189
26	0xbe5d361f	-0.21602677
27	0x3bb6ab12	0.0055745924
28	0x3b3ffdad	0.002929549
29	0x3d1dd8de	0.0385369
30	0xbda9b493	-0.08286395
31	0x3e13405e	0.14380023
32	0x3cca1ef8	0.02467297
33	0x3c664ba4	0.01405612
34	0xbd674cd7	-0.056469765
35	0xbd705ad5	-0.058680374
36	0xbd2703b0	-0.040775
37	0xbdd18930	-0.102312446
38	0x3d1ec061	0.038757686
39	0xbd77da39	-0.060510848
40	0xbdf50150	-0.11963141
41	0x3e1e1e35	0.1544121
42	0x3ca7077e	0.020389315
43	0xbd9fc8be	-0.078019604
44	0x3bb687a4	0.005570369
45	0x3d8f684d	0.07002316
46	0x3da7e095	0.081971325
47	0x3d51a681	0.05118418
48	0x3e08afdb	0.13348334
49	0x3d06fd48	0.03295639
50	0xbb1c2a47	-0.002382891
51	0xbd6fd943	-0.058556806
52	0xbde3f6a9	-0.11131031
53	0xbe09ab28	-0.13444197
54	0xbe131221	-0.14362384
55	0x3dbe8d59	0.09304304
56	0xbd014ddf	-0.031568404
57	0xbc588ad5	-0.013216694
58	0x3dcec085	0.10095314
59	0xbdf77113	-0.12082114
60	0xbde554ff	-0.11197852
61	0xbd4139d2	-0.047174282
62	0xbdf7663e	-0.12080048
63	0xbd9b338e	-0.07578193
64	0x3c18d4aa	0.009328047
65	0xbd552b84	-0.052043453
66	0xbd2b7425	-0.04185881
67	0xbe6ad256	-0.229318
68	0xbdc30ac4	-0.09523538
69	0xbd6a0123	-0.05712999
70	0x3e16f792	0.14742878
71	0xbce11e07	-0.027480138
72	0x3e297f99	0.16552581
73	0x3d95d017	0.073150806
74	0x3cae37d8	0.021266863
75	0xbbf0f1e1	-0.007353053
76	0xbd51379d	-0.051078428
77	0x3e11f52e	0.14253685
78	0xbd34b5a4	-0.04411854
79	0x3d40f2e1	0.047106627
80	0xbd841a6d	-0.06450353
81	0xbd227e38	-0.039671153
82	0x3d57ac25	0.052654404
83	0xbd0b67e9	-0.034034643
84	0x3db72f40	0.08944559
85	0xbd99f463	-0.07517316
86	0x3db13a4b	0.086536966
87	0x3cbbf1c1	0.022942426
88	0xbe031707	-0.12801753
89	0xbc08bb6c	-0.008345466
90	0xbd73e607	-0.059545543
91	0xbda5404a	-0.08068903
92	0xbd763822	-0.060112126
93	0x3c745633	0.01491313
94	0xbd864f46	-0.06558089
95	0xbddc0497	-0.10743063
96	0x3c59c5fb	0.013291831
97	0xbd4e11e3	-0.050310027
98	0x3cbe0bf8	0.023199067
99	0xbc65ae6a	-0.014018634
100	0xbe0b6a9a	-0.13614884
101	0xbd9addf4	-0.075618654
102	0xbe3ba493	-0.18324499
103	0xbe130945	-0.14359005
104	0xbd3f7733	-0.046744537
105	0xbe2779cd	-0.16355057
106	0xbe18f3f6	-0.14936814
107	0xbe0e2e79	-0.13884915
108	0x3d8fca3f	0.07020997
109	0xbd48e9e2	-0.049051173
110	0xbce50be2	-0.027959768
111	0xbe1b3895	-0.15158303
112	0xbd815ec9	-0.06316907
113	0xbd770540	-0.06030774
114	0xbc6f0270	-0.0145879835
115	0x3d59abf7	0.053142514
116	0x3da557d6	0.08073394
117	0x3d7b2750	0.06131679
118	0x3c9c1783	0.01905418
119	0x3e3a89e7	0.18216668
120	0x3d208c61	0.039196376
121	0x3c4d92ab	0.012547175
122	0xbc591e4c	-0.013251852
123	0x3b4aef31	0.0030965323
124	0x3b41dfa3	0.002958276
125	0x3e035802	0.12826541
126	0xbd12bfe4	-0.035827532
127	0x3e1a97a1	0.15096904
128	0xbdd81148	-0.10550171
129	0xbc5ffde8	-0.013671376
130	0x399d2427	0.0002997231
131	0x3c8288db	0.015934398
132	0x3c5bccb0	0.0134155005
133	0xbb78adaa	-0.0037945309
134	0x3c6b30b5	0.014354874
135	0xbe58181b	-0.21102946
136	0xbe314ab5	-0.17313655
137	0xbcd102f3	-0.025514102
138	0xbce49085	-0.027900944
139	0xbcb5c325	-0.022187779
140	0xbd3cd523	-0.0461017
141	0xbe1c56c4	-0.15267473
142	0x3d50de3d	0.050993193
143	0x3d935793	0.07194438
144	0xbdc15c0e	-0.09441386
145	0xbe484028	-0.19555724
146	0x3d36b11d	0.044602502
147	0xbe1a5e23	-0.15074973
148	0xbda0d5b3	-0.0785326
149	0xbe3bc16a	-0.183355
150	0xbe0d46bc	-0.13796514
151	0xbcee3c9c	-0.029081635
152	0x3da31402	0.079628006
153	0x3d17af45	0.037032384
154	0x3c271ad8	0.010199271
155	0xbdb5e0ee	-0.088807926
156	0x3dd0aad5	0.101888336
157	0xbda47f3e	-0.08032082
158	0xbd2e5741	-0.04256368
159	0xbc95c75b	-0.018283537
160	0x3de907b4	0.113784224
161	0x3e09adea	0.13445249
162	0x3c3b5540	0.011433899
163	0xbd46e8e9	-0.048561964
164	0xbe6d1393	-0.23151998
165	0xbd80a179	-0.062807985
166	0xbe3bf2d9	-0.18354358
167	0xbb9139de	-0.004431947
168	0xbe5076d5	-0.20357831
169	0x3da671fd	0.0812721
170	0xbe5ce30c	-0.21570987
171	0x3de85ab8	0.11345428
172	0xbd9e483d	-0.07728622
173	0x3b47b820	0.0030474737
174	0x3d637e1b	0.055540185
175	0x3ded4be4	0.115867406
176	0xbd0ecb84	-0.034862056
177	0x3e245905	0.16049583
178	0x3d36646c	0.044529364
179	0x3dc590f9	0.09646792
180	0xbdc0e34f	-0.09418356
181	0x3d948b92	0.072531834
182	0xbd512c4d	-0.05106764
183	0xbd86b906	-0.06578259
184	0xbe2e0e9a	-0.16997758
185	0xbcaf90b8	-0.021431312
186	0xbae65539	-0.0017573006
187	0xbba20f9e	-0.0049457094
188	0xbd254aa5	-0.04035439
189	0xbcbe9c49	-0.023267882
190	0xbdfbd1f0	-0.12295902
191	0x3c6b0354	0.014344055
192	0xbd83a4ec	-0.06427941
193	0xbe059e7c	-0.13048738
194	0xbe30983d	-0.17245574
195	0xbdf97531	-0.121805556
196	0xbdd822a1	-0.1055348
197	0xbe27e0f8	-0.16394413
198	0xbdceed61	-0.1010387
199	0xbe9c1e27	-0.30491754
200	0xbca3aa2d	-0.019978607
201	0xbc91441e	-0.017732676
202	0xbd70baeb	-0.05877201
203	0xbb0f10cc	-0.002183008
204	0x3d785182	0.060624607
205	0x3d45e6a5	0.048315663
206	0xbdb6ba2c	-0.08922228
207	0xbb880802	-0.004151345
208	0x3e21b5cf	0.1579201
209	0x3d4a2e79	0.049360726
210	0x3e077a79	0.13230313
211	0x3ddded2b	0.10836252
212	0xbcffc575	-0.031222085
213	0x3d0d56c4	0.034506574
214	0xbd36cc96	-0.044628702
215	0xbda1a843	-0.078934215
216	0x3c94f881	0.018184902
217	0xbe756b1f	-0.23966645
218	0x3c83a5d1	0.016070278
219	0xbdf19c4a	-0.11797388
220	0x3d1bdf71	0.038054887
221	0xbe04acf2	-0.12956598
222	0xbd9187a9	-0.07105953
223	0xbae6f4c0	-0.0017620549
224	0xbd9ac4e3	-0.075570844
225	0xbdeff5dd	-0.117168166
226	0xbdbcc468	-0.09217149
227	0xbbec7688	-0.0072162785
228	0x3cd2b37c	0.02572035
229	0x3d20dd4d	0.03927355
230	0xbc14bc1a	-0.00907805
231	0x3cc602d5	0.024171272
232	0xbd84ee65	-0.06490783
233	0x3c83d628	0.016093329
234	0x3dbdc49c	0.09266016
235	0x3e45b088	0.19305623
236	0xbda5f2a5	-0.081029214
237	0x3d4d148d	0.050068427
238	0xbbb4e195	-0.0055200555
239	0x3e315eae	0.17321274
240	0x3d0bee25	0.03416266
241	0xbdc9076f	-0.09815871
242	0x3e058e88	0.13042653
243	0x3e0a9db8	0.13536727
244	0x3d9d376a	0.07676585
245	0x3dc978aa	0.09837468
246	0x3dd88547	0.10572296
247	0x3cbf87b5	0.02338014
248	0xbcbb3345	-0.022851596
249	0x3e09740d	0.13423176
250	0x3d0a0f9a	0.033706285
251	0x3db13732	0.08653106
252	0x3d0704ac	0.03296344
253	0x3d93960d	0.07206354
254	0x3cbac990	0.02280119
255	0x3dbf96a7	0.093549065

layer2.0.bn1.weight f4 [32]
0	0x3f70ad93	0.94014853
1	0x3f789c9e	0.9711398
2	0x3f846bb2	1.0345366
3	0x3f80d622	1.0065348
4	0x3f835f0c	1.0263381
5	0x3f7d23ca	0.98882735
6	0x3f71a8f6	0.9439844
7	0x3f76dbf1	0.96429354
8	0x3f91856c	1.1368842
9	0x3f72e026	0.94873273
10	0x3f682c21	0.90692335
11	0x3f7349e3	0.9503462
12	0x3f702110	0.9380045
13	0x3f6a0201	0.9140931
14	0x3f7b0131	0.9804869
15	0x3f6ff594	0.937341
16	0x3f6b01ed	0.91799814
17	0x3f68cef1	0.9094077
18	0x3f8269c0	1.0188522
19	0x3f7e20b2	0.9926864
20	0x3f671dac	0.9027965
21	0x3f76870d	0.9629982
22	0x3f83aa29	1.0286304
23	0x3f77eb76	0.9684366
24	0x3f84b4cb	1.0367674
25	0x3f852b9d	1.0403935
26	0x3f7293ff	0.94757074
27	0x3f7cbf76	0.98729646
28	0x3f76d977	0.96425575
29	0x3f7d93f4	0.99053884
30	0x3f6a0c36	0.9142488
31	0x3f6a8127	0.9160332

layer2.0.bn1.bias f4 [32]
0	0xbd941ec7	-0.07232433
1	0xbd87e949	-0.066362925
2	0xbdad73a6	-0.08469324
3	0xbda39148	-0.079866946
4	0xbd36b45a	-0.04460559
5	0x3b112c32	0.0022151587
6	0xbe18496a	-0.14871755
7	0xbe14076b	-0.14455955
8	0xbdcedbca	-0.10100515
9	0xbe1c4aa5	-0.1526285
10	0xbd5e6dbf	-0.05430388
11	0xbe2271c5	-0.15863712
12	0xbdf57084	-0.11984351
13	0xbe09815d	-0.13428254
14	0xbd4b3498	-0.049610704
15	0xbda86972	-0.08223237
16	0xbd4631ad	-0.04838722
17	0xbded2941	-0.11580134
18	0x3c8205aa	0.015871841
19	0xbe2485f8	-0.1606673
20	0xbdd31b62	-0.10307957
21	0xbe00f1c0	-0.1259222
22	0xbd1c3a9e	-0.03814184
23	0xbd14c04d	-0.036316205
24	0xbdc54458	-0.09632176
25	0xbdf8ffb6	-0.12158148
26	0xbe386ab2	-0.18009451
27	0xbdd3120f	-0.10306179
28	0xbd26e157	-0.040742245
29	0xbd4aef79	-0.049544785
30	0xbe7fd04f	-0.24981807
31	0xbdef4016	-0.11682145

layer2.0.bn1.running_mean f4 [32]
0	0xbfd12538	-1.6339483
1	0xbf503a78	-0.81339216
2	0x3e85ae53	0.2610956
3	0xbffc1405	-1.969361
4	0x3f330ce1	0.69941527
5	0xbc6cdc2f	-0.014456793
6	0x3e9d11d7	0.30677673
7	0xbf1e5819	-0.61853176
8	0xbe85a21b	-0.2610024
9	0x3edf1b81	0.4357567
10	0xbf51281e	-0.8170184
11	0xbf888240	-1.0664749
12	0xbefe4539	-0.49662188
13	0xbfb3c382	-1.4044039
14	0xbcff462d	-0.031161392
15	0xbf3f9601	-0.7483826
16	0xbf12dbca	-0.5736662
17	0x3fc61db2	1.5477812
18	0xbfdefece	-1.742151
19	0xbf2c8213	-0.6738598
20	0xc03798e6	-2.8687072
21	0xc0375e11	-2.8651164
22	0x3f155eae	0.58347595
23	0xbde4f235	-0.1117901
24	0xbe1d40b3	-0.15356712
25	0x3de3f563	0.11130788
26	0x3f86a5f8	1.05194
27	0xbed6cf64	-0.419551
28	0xbf006f6c	-0.50170016
29	0xc03889b9	-2.883406
30	0xbe1af70b	-0.15133302
31	0xbf3a16e8	-0.726912

layer2.0.bn1.running_var f4 [32]
0	0x3ff14dca	1.8851864
1	0x401cb5f1	2.4486048
2	0x3fbc8623	1.4728435
3	0x3f976b34	1.1829591
4	0x401d97ec	2.4623976
5	0x401e80c7	2.47661
6	0x3fc29d69	1.5204288
7	0x3fe09291	1.7544729
8	0x40615ea1	3.5214007
9	0x405d6ba8	3.4596958
10	0x3faf2c5e	1.3685415
11	0x3fe16d2a	1.7611439
12	0x3fddf033	1.7338928
13	0x3fdb2dd5	1.7123362
14	0x3fa948ef	1.3225383
15	0x3fb061f8	1.3779898
16	0x4019d07c	2.4033499
17	0x400641f5	2.0977757
18	0x3ff72072	1.9306777
19	0x3fd9a9ac	1.7004905
20	0x405b0a8e	3.4225192
21	0x404e81b6	3.226667
22	0x3f7bb335	0.98320323
23	0x40147cc1	2.3201144
24	0x3fe5dca5	1.795796
25	0x3f9770e4	1.1831326
26	0x3fc7ab35	1.5599123
27	0x3f5eb035	0.8698762
28	0x3fa79496	1.309222
29	0x3f73d933	0.95253295
30	0x3fc2a44f	1.5206393
31	0x3f82ca96	1.0218074

layer2.0.conv2.weight f4 [32, 32, 3, 3]
0	0x3d0a61df	0.033784743
1	0xbd5ea53a	-0.05435679
2	0x3ca27e91	0.019835742
3	0xbcdc70dd	-0.026909286
4	0x3bb71a7e	0.005587875
5	0x3d8f0d7e	0.06984995
6	0x3dc10662	0.094250455
7	0x3d82261a	0.063549235
8	0x3b0cb036	0.0021467335
9	0xbbe0a1ec	-0.00685524
10	0xbcf24ff4	-0.02957914
11	0xbe2443b4	-0.16041452
12	0x3cb92e1c	0.022604994
13	0xbde94afb	-0.113912545
14	0xbe492d46	-0.19646177
15	0xbe6aba7f	-0.22922705
16	0xbdc18941	-0.09450007
17	0xbdfabbd0	-0.12242854
18	0x3d6b14f8	0.057393044
19	0x3cdfe63a	0.02733146
20	0x3db9eba2	0.090781465
21	0x3cc81a1f	0.024426518
22	0xbe2736c6	-0.16329488
23	0x3ce8f260	0.028435886
24	0xbb2202e9	-0.0024720973
25	0xbdee4e77	-0.1163606
26	0xbdc94ca5	-0.09829072
27	0xbc35d07d	-0.011097071
28	0x3d7e91b7	0.062150683
29	0x3dc43f3d	0.09582374
30	0x3d8c58fd	0.06852911
31	0xbd17b072	-0.037033506
32	0x3c16aedf	0.009196966
33	0x3d9c58b1	0.07634104
34	0x3cde767d	0.027156109
35	0x3c1ddd7e	0.009635327
36	0x3ce600eb	0.02807661
37	0xbc397766	-0.011319971
38	0xbcf5013b	-0.029907813
39	0xbdd8116d	-0.10550199
40	0xbd17c59a	-0.037053682
41	0xbd810ab4	-0.063008696
42	0xbdfa9f83	-0.12237456
43	0xbd0b91a9	-0.03407446
44	0xbe1ae38f	-0.15125869
45	0xbd8ad505	-0.067789115
46	0x3cab98f1	0.020946952
47	0x3c233632	0.009961652
48	0xbd74392b	-0.059624832
49	0xbe1175e1	-0.14205123
50	0x3e1b4b80	0.1516552
51	0xbd8d0a45	-0.068867244
52	0xbd0cda8f	-0.03438812
53	0xbdeb150d	-0.114786245
54	0x3dcc4997	0.09974974
55	0x3dbdfa7a	0.0927629
56	0x3d81a67e	0.06330584
57	0xbcc76520	-0.024340212
58	0xbd355c45	-0.04427745
59	0x3ddb075a	0.106947616
60	0xbcf91cff	-0.030409334
61	0x3d0d3813	0.034477305
62	0xbc1e63a6	-0.009667313
63	0xbcf21e22	-0.029555384
64	0x3d96f59d	0.07371066
65	0xbd10e4e5	-0.03537454
66	0x3c8ff6cb	0.017573735
67	0x3d8441b2	0.06457843
68	0x3ce8d083	0.028419739
69	0xbdaa82e8	-0.0832575
70	0xbc3a4c26	-0.011370694
71	0x3c966aec	0.018361531
72	0x3e1d08dd	0.15335412
73	0x3cfaf6ae	0.030635204
74	0x3d3ee3d8	0.046604007
75	0x3cce7c83	0.025205856
76	0xbd13ce09	-0.036085162
77	0xbc414501	-0.011796237
78	0x3db191df	0.08670401
79	0x3da98b56	0.08278529
80	0x3ce93d77	0.028471692
81	0xbdc45aef	-0.09587657
82	0xbd35ed48	-0.044415742
83	0xbc830b7a	-0.015996683
84	0xbe8b2fd6	-0.27184933
85	0xbd8e61d6	-0.069522545
86	0xbdaf762b	-0.085674606
87	0xbe1122d3	-0.1417344
88	0xbe30f7f8	-0.17282093
89	0xbd992139	-0.0747704
90	0x3de723fd	0.11286161
91	0x3dec4f00	0.115385056
92	0x3e99b506	0.30020922
93	0x3e0f6a75	0.14005454
94	0x3e1b802c	0.15185612
95	0x3e012630	0.12612224
96	0x3c91a0fe	0.017776962
97	0xbdd04950	-0.10170233
98	0x3d0c934c	0.03432016
99	0x3da12d29	0.07869942
100	0x3c910de2	0.017706815
101	0xbdb80c98	-0.08986777
102	0xbd20cd86	-0.039258502
103	0xbd9e0a72	-0.07716836
104	0xbc05e751	-0.008172826
105	0xbcfc53bb	-0.030801645
106	0xbc9fa4f7	-0.019487841
107	0xbdc71bb4	-0.09722081
108	0xbdeb18da	-0.114793494
109	0x3b9028b7	0.004399385
110	0x3d1a711b	0.037705522
111	0xbe08d5cd	-0.13362809
112	0x3d35b15b	0.044358592
113	0x3d22ceb8	0.039747924
114	0xbdcb6385	-0.09931091
115	0xbd7a5e2d	-0.06112497
116	0xbd31fbd3	-0.04345305
117	0x3d180ce6	0.037121676
118	0xbcccb9a0	-0.024990857
119	0xbce34515	-0.027742902
120	0x3d9e7739	0.07737584
121	0x3c8ac071	0.016937466
122	0x3a976362	0.0011550004
123	0xbcad7883	-0.021175629
124	0x3cecd50c	0.028910182
125	0xbd8c35c2	-0.06846191
126	0x3d471965	0.048608202
127	0x3e1b156a	0.15144888
128	0x3e430214	0.19043761
129	0xbdb986b7	-0.09058898
130	0xbe2c4cbb	-0.16826145
131	0x3e2153b3	0.15754585
132	0xbd6e1ac0	-0.05813098
133	0x3d32855d	0.043584216
134	0xbdfde15e	-0.12396501
135	0x3c180bb5	0.009280135
136	0x3d2756b2	0.040854163
137	0x3dc3a150	0.09552252
138	0x3cf05a24	0.029339857
139	0x3d019efe	0.031645767
140	0x3dd085e9	0.10181791
141	0x3dfc07df	0.12306189
142	0xbd6b52d6	-0.057452045
143	0x3d91e66d	0.07124028
144	0xbc756d54	-0.014979679
145	0x3cf28433	0.029604053
146	0x3d0e7609	0.034780536
147	0xbe2cf7e2	-0.16891435
148	0x3d799b72	0.06093926
149	0x3d56156b	0.05226652
150	0xbcbed5ed	-0.023295367
151	0xbd1668a7	-0.036720898
152	0x3d376017	0.044769373
153	0xbe477bd1	-0.19480826
154	0x3d9b0e4c	0.07571086
155	0x3e09ce14	0.13457519
156	0xbdd3a96e	-0.103350505
157	0x3cd6f2e3	0.026238864
158	0x3d353a58	0.044245094
159	0x3db98b23	0.09059741
160	0xbd5c37d4	-0.05376418
161	0xbd282584	-0.041051403
162	0x3db47e72	0.0881318
163	0x3e5bcc49	0.21464647
164	0xbdab6052	-0.08367981
165	0x3cbad1b3	0.02280507
166	0x3d497a33	0.049188804
167	0xbd5c21c0	-0.053743124
168	0x3d88e98d	0.06685171
169	0xbdcff3f1	-0.1015395
170	0x3c991d69	0.018690782
171	0xbdebb5e2	-0.11509301
172	0xbe7eb943	-0.24875359
173	0x3c8b1db9	0.016981946
174	0xbe050ee5	-0.12993963
175	0x3bde9f77	0.006793912
176	0xbe3a8f5f	-0.18218754
177	0xbd3ae27f	-0.04562616
178	0xbcb4fd9c	-0.022093587
179	0x3bd05448	0.0063577034
180	0x3e0af082	0.13568309
181	0xbdcd1f8d	-0.100157835
182	0x3d863162	0.06552388
183	0xbe508ec5	-0.20366962
184	0xbc82c80b	-0.015964529
185	0x3d7bc209	0.061464343
186	0xbda330e5	-0.0796831
187	0xbdeb8cc7	-0.115014605
188	0x3e3e5ed9	0.18590869
189	0xbd2029ee	-0.039102487
190	0x3c40bf5c	0.011764374
191	0xbdf1054f	-0.11768591
192	0xbce7e0bf	-0.02830541
193	0x3cdb2c9f	0.026754675
194	0xbd53d0f1	-0.051712934
195	0x3d21c582	0.039495
196	0x3d89c407	0.067268424
197	0xbc23f0db	-0.010006155
198	0x3deafa76	0.11473553
199	0xbd0b38a9	-0.033989582
200	0x3d3216e8	0.043478876
201	0xbe1f7e77	-0.15575586
202	0xbe234f7c	-0.1594829
203	0xbdbc729a	-0.09201546
204	0xbe0d05b5	-0.13771708
205	0xbe0fe6fa	-0.14052954
206	0xbd228c25	-0.039684433
207	0xbc0a03bf	-0.008423745
208	0x3bcb4601	0.0062034135
209	0x3df0e60c	0.11762628
210	0xbcc622c4	-0.0241865
211	0xbc58a611	-0.013223187
212	0x3de21dab	0.11040815
213	0x3d9d4bdf	0.07680487
214	0xbd729201	-0.05922127
215	0xbb3a449e	-0.0028422247
216	0x3df8be76	0.121457025
217	0x3dceef3b	0.10104223
218	0x3df1e69b	0.11811563
219	0xbce8ec37	-0.028432949
220	0x3da0762f	0.07835042
221	0x3db9e42e	0.09076725
222	0xbd28c002	-0.041198738
223	0xbe067189	-0.13129248
224	0x3ccd5296	0.025063794
225	0x3d878c56	0.06618564
226	0xbc94db25	-0.018170903
227	0x3e01b070	0.12664962
228	0x3df350e6	0.118806645
229	0xbe355e63	-0.17711787
230	0x3dbe4241	0.09289981
231	0x3c595a42	0.013266148
232	0x3e790788	0.24319279
233	0x3e21f030	0.1581428
234	0x3d86b78c	0.065779775
235	0x3da886eb	0.082288586
236	0x3d855ff0	0.06512439
237	0xbd0774f3	-0.033070516
238	0x3cc8ba7e	0.024502989
239	0x3d8974da	0.06711741
240	0xbd3b5a8a	-0.04574064
241	0x3dc2b7dd	0.095077254
242	0xbd53e391	-0.051730696
243	0xbd403af2	-0.046931215
244	0x3cda784d	0.026668692
245	0x3cb60b5a	0.02222221
246	0x3d531788	0.051536113
247	0x3d3dffd4	0.046386555
248	0x3dbb3647	0.09141212
249	0xbce90af6	-0.02844761
250	0x3e0aa8fe	0.13541028
251	0x3d1ab39d	0.03776895
252	0xbdfcff13	-0.12353339
253	0xbc8d7bcf	-0.01727095
254	0xbd7a87d4	-0.061164692
255	0xbd36e469	-0.044651423

layer2.0.bn2.weight f4 [32]
0	0x3f76b440	0.9636879
1	0x3f6d6738	0.92735624
2	0x3f8c9835	1.098395
3	0x3f77441a	0.9658829
4	0x3f86fad7	1.05453
5	0x3f7e7f5b	0.9941308
6	0x3f8e332e	1.1109369
7	0x3f845ca6	1.0340774
8	0x3f83bac7	1.0291375
9	0x3f8745af	1.0568141
10	0x3f87a155	1.059611
11	0x3f81f6dc	1.015346
12	0x3f78ac68	0.9713807
13	0x3f839443	1.0279621
14	0x3f831803	1.0241703
15	0x3f78d097	0.9719328
16	0x3f81190a	1.0085766
17	0x3f823356	1.0171916
18	0x3f916a40	1.136055
19	0x3f80842c	1.0040336
20	0x3f83a42c	1.0284476
21	0x3f71f7fb	0.94519013
22	0x3f89cf0a	1.0766308
23	0x3f86194e	1.0476472
24	0x3f878a08	1.0588999
25	0x3f832c0a	1.0247815
26	0x3f9009b1	1.1252958
27	0x3f82c9b5	1.0217806
28	0x3f8a9e22	1.0829508
29	0x3f7f003e	0.99609745
30	0x3f8ec8ea	1.1155064
31	0x3f84d515	1.0377527

layer2.0.bn2.bias f4 [32]
0	0xbdfa4130	-0.12219465
1	0xbd835ee1	-0.06414581
2	0xbcbc5158	-0.022988006
3	0xbe08a11e	-0.13342711
4	0xbdb9dce6	-0.09075336
5	0x3c5a57f0	0.01332663
6	0xbda7b916	-0.08189599
7	0xbdff2341	-0.12457896
8	0x3d057b9a	0.03258858
9	0xbd3543e0	-0.044254184
10	0xbd1178d7	-0.035515632
11	0xbd938ff9	-0.07205195
12	0xbdf4deda	-0.11956568
13	0xbc2b3e4f	-0.010451867
14	0xbdd94752	-0.106093064
15	0xbd1eeed2	-0.038801976
16	0xbc9b820a	-0.018982906
17	0xbc5265d7	-0.012841663
18	0xbdae943e	-0.08524369
19	0xbe1c47bd	-0.15261741
20	0xbe27e11a	-0.16394463
21	0x3c348dad	0.011020106
22	0xbcaada76	-0.020856123
23	0xbd21a6ce	-0.039465718
24	0x3d1b292b	0.037881058
25	0xbd61b19b	-0.05510102
26	0xbdb03866	-0.08604507
27	0xbdbeee0d	-0.09322748
28	0xbda3b0f8	-0.079927385
29	0xbc8910d3	-0.016731655
30	0xbc230c96	-0.009951731
31	0x3cf287b9	0.029605733

layer2.0.bn2.running_mean f4 [32]
0	0xbf17c73b	-0.59288377
1	0x3fd170fd	1.6362606
2	0x3ee5d031	0.448854
3	0xbdfc2f64	-0.123137265
4	0xbe60c48c	-0.21949977
5	0x3f2c92df	0.6741161
6	0x3f9c3fee	1.220701
7	0x3f508009	0.81445366
8	0x3f8cd2ba	1.1001809
9	0x3f8bca0a	1.0921032
10	0xbf6f1660	-0.93393517
11	0xbf338129	-0.7011896
12	0xbf806cf5	-1.0033251
13	0x3f2a89db	0.666166
14	0x3ed81b0f	0.42208144
15	0xbdd55a94	-0.10417667
16	0x3f4d0742	0.800892
17	0xbfc9eac7	-1.5774773
18	0x3e837ff5	0.2568356
19	0x3fbf8d2c	1.4964957
20	0x3fdf2d1d	1.7435642
21	0xbf818806	-1.0119636
22	0xbf09c7d9	-0.5382057
23	0x3eb8e1b0	0.36109686
24	0xc011fd83	-2.2810981
25	0x3d72238b	0.059115928
26	0xbe7a25c2	-0.24428466
27	0x3eb44dfd	0.3521575
28	0x3f72d486	0.94855535
29	0xbf4bd7b5	-0.7962602
30	0xbfe979a6	-1.8240249
31	0xbea3d487	-0.31998083

layer2.0.bn2.running_var f4 [32]
0	0x3feb6485	1.8390051
1	0x3fa769da	1.3079178
2	0x3f83a11b	1.028354
3	0x3f76a696	0.9634794
4	0x3f7fd2bc	0.9993093
5	0x3ff27a0b	1.8943495
6	0x3fd80429	1.687627
7	0x3f9c7e93	1.2226127
8	0x3ff8d755	1.9440714
9	0x3fd62a61	1.6731683
10	0x3f98ad08	1.1927805
11	0x3ffebe78	1.9901876
12	0x3fe65d90	1.7997303
13	0x400be415	2.185796
14	0x3fa737c6	1.3063896
15	0x4010753d	2.2571557
16	0x3f8ce041	1.1005937
17	0x4004db1c	2.0758734
18	0x401dfb65	2.468469
19	0x3f86da01	1.053528
20	0x3f7a0b53	0.9767353
21	0x4008b22a	2.1358743
22	0x3f820dba	1.0160439
23	0x3fddb6e9	1.7321445
24	0x40117621	2.272835
25	0x3fa575dd	1.2926594
26	0x3f99f63e	1.2028272
27	0x3f8a5f92	1.0810416
28	0x3f8fcb45	1.1233908
29	0x3fb6860f	1.4259661
30	0x3ffc4e7a	1.9711449
31	0x3fd3482b	1.6506399
